…
	filters:   64
	kernel_size:   3
	reg_n:   l2(5e-1)
	activation:   relu
	batch_norm:   True
	dropout:   0.4
	pooling:   True
	pool_size:   2
	padding:   causal
	dilation_rate:   3
	class_weight:   {0: 1.1070110701107012, 1: 10.344827586206897}
	look_back:   500
	stride:   5
	predicted_timestamps:   1
	target_steps_ahead:   0
	subsampling_factor:   2

Model
Model: "sequential"
_________________________________________________________________
Layer (type)                 Output Shape              Param #   
=================================================================
conv1d (Conv1D)              (None, 500, 64)           17344     
_________________________________________________________________
max_pooling1d (MaxPooling1D) (None, 250, 64)           0         
_________________________________________________________________
conv1d_1 (Conv1D)            (None, 250, 64)           12352     
_________________________________________________________________
max_pooling1d_1 (MaxPooling1 (None, 125, 64)           0         
_________________________________________________________________
conv1d_2 (Conv1D)            (None, 125, 32)           6176      
_________________________________________________________________
max_pooling1d_2 (MaxPooling1 (None, 62, 32)            0         
_________________________________________________________________
flatten (Flatten)            (None, 1984)              0         
_________________________________________________________________
batch_normalization_v2 (Batc (None, 1984)              7936      
_________________________________________________________________
dropout (Dropout)            (None, 1984)              0         
_________________________________________________________________
dense (Dense)                (None, 256)               508160    
_________________________________________________________________
batch_normalization_v2_1 (Ba (None, 256)               1024      
_________________________________________________________________
dropout_1 (Dropout)          (None, 256)               0         
_________________________________________________________________
dense_1 (Dense)              (None, 1)                 257       
=================================================================
Total params: 553,249
Trainable params: 548,769
Non-trainable params: 4,480
_________________________________________________________________

Data shape
	X_train:   (17400, 500, 90)
	y_train:   (17400,)
	X_test:   (14951, 500, 90)
	y_test:   (14951,)

Results on train set
	loss_train:   0.011754144480046745
	accuracy_train:   0.9979885057471264
…
