…
	filters:   64
	kernel_size:   3
	reg_n:   l2(5e-1)
	activation:   relu
	batch_norm:   True
	dropout:   0.4
	pooling:   True
	pool_size:   2
	padding:   causal
	dilation_rate:   3
	class_weight:   {0: 1.1029411764705883, 1: 10.714285714285714}
	look_back:   100
	stride:   5
	predicted_timestamps:   1
	target_steps_ahead:   0
	subsampling_factor:   2

Model
Model: "sequential"
_________________________________________________________________
Layer (type)                 Output Shape              Param #   
=================================================================
conv1d (Conv1D)              (None, 100, 64)           17344     
_________________________________________________________________
max_pooling1d (MaxPooling1D) (None, 50, 64)            0         
_________________________________________________________________
conv1d_1 (Conv1D)            (None, 50, 64)            12352     
_________________________________________________________________
max_pooling1d_1 (MaxPooling1 (None, 25, 64)            0         
_________________________________________________________________
conv1d_2 (Conv1D)            (None, 25, 32)            6176      
_________________________________________________________________
max_pooling1d_2 (MaxPooling1 (None, 12, 32)            0         
_________________________________________________________________
flatten (Flatten)            (None, 384)               0         
_________________________________________________________________
batch_normalization_v2 (Batc (None, 384)               1536      
_________________________________________________________________
dropout (Dropout)            (None, 384)               0         
_________________________________________________________________
dense (Dense)                (None, 256)               98560     
_________________________________________________________________
batch_normalization_v2_1 (Ba (None, 256)               1024      
_________________________________________________________________
dropout_1 (Dropout)          (None, 256)               0         
_________________________________________________________________
dense_1 (Dense)              (None, 1)                 257       
=================================================================
Total params: 137,249
Trainable params: 135,969
Non-trainable params: 1,280
_________________________________________________________________

Data shape
	X_train:   (16800, 100, 90)
	y_train:   (16800,)
	X_test:   (14991, 100, 90)
	y_test:   (14991,)

Results on train set
	loss_train:   0.026988240470271166
	accuracy_train:   0.9943452380952381
…
