…
Increased number of samples: 150000 instead of 100000

Parameters
	epochs:			10
	batch_size:		64
	depth_conv:		3
	depth_dense:	2
	filters:		64
	kernel_size:	3
	reg:			l2(5e-1)
	activation:		relu
	batch_norm:		True
	dropout:		0.4
	class_weight:	{0: 1.098901098901099, 1: 11.11111111111111}
	look_back:		200
	stride:			1
	predicted_timestamps:	1
	target_steps_ahead:		4000
	subsampling_factor:		2

Model
Model: "sequential"
_________________________________________________________________
Layer (type)                 Output Shape              Param #   
=================================================================
conv1d (Conv1D)              (None, 200, 64)           17344     
_________________________________________________________________
max_pooling1d (MaxPooling1D) (None, 200, 64)           0         
_________________________________________________________________
conv1d_1 (Conv1D)            (None, 200, 64)           12352     
_________________________________________________________________
max_pooling1d_1 (MaxPooling1 (None, 200, 64)           0         
_________________________________________________________________
conv1d_2 (Conv1D)            (None, 200, 32)           6176      
_________________________________________________________________
max_pooling1d_2 (MaxPooling1 (None, 200, 32)           0         
_________________________________________________________________
flatten (Flatten)            (None, 6400)              0         
_________________________________________________________________
batch_normalization_v2 (Batc (None, 6400)              25600     
_________________________________________________________________
dropout (Dropout)            (None, 6400)              0         
_________________________________________________________________
dense (Dense)                (None, 256)               1638656   
_________________________________________________________________
batch_normalization_v2_1 (Ba (None, 256)               1024      
_________________________________________________________________
dropout_1 (Dropout)          (None, 256)               0         
_________________________________________________________________
dense_1 (Dense)              (None, 1)                 257       
=================================================================
Total params: 1,701,409
Trainable params: 1,688,097
Non-trainable params: 13,312
_________________________________________________________________

Data shape
	X_train shape:	(81000, 200, 90)
	y_train shape:	(81000,)
	X_test shape: 	(145801, 200, 90)
	y_test shape: 	(145801,)

Results on train set
	Loss:		0.08618002792450731
…
