…
	filters:   64
	kernel_size:   3
	reg_n:   5e-1
	activation:   relu
	batch_norm:   True
	dropout:   0.4
	pooling:   True
	pool_size:   2
	padding:   causal
	dilation_rate:   3
	class_weight:   {0: 1.098901098901099, 1: 11.11111111111111}
	look_back:   200
	stride:   10
	predicted_timestamps:   1
	target_steps_ahead:   5000
	subsampling_factor:   2
Model
Model: "sequential"
_________________________________________________________________
Layer (type)                 Output Shape              Param #   
=================================================================
conv1d (Conv1D)              (None, 200, 64)           17344     
_________________________________________________________________
max_pooling1d (MaxPooling1D) (None, 100, 64)           0         
_________________________________________________________________
conv1d_1 (Conv1D)            (None, 100, 64)           12352     
_________________________________________________________________
max_pooling1d_1 (MaxPooling1 (None, 50, 64)            0         
_________________________________________________________________
conv1d_2 (Conv1D)            (None, 50, 32)            6176      
_________________________________________________________________
max_pooling1d_2 (MaxPooling1 (None, 25, 32)            0         
_________________________________________________________________
flatten (Flatten)            (None, 800)               0         
_________________________________________________________________
batch_normalization_v2 (Batc (None, 800)               3200      
_________________________________________________________________
dropout (Dropout)            (None, 800)               0         
_________________________________________________________________
dense (Dense)                (None, 256)               205056    
_________________________________________________________________
batch_normalization_v2_1 (Ba (None, 256)               1024      
_________________________________________________________________
dropout_1 (Dropout)          (None, 256)               0         
_________________________________________________________________
dense_1 (Dense)              (None, 1)                 257       
=================================================================
Total params: 245,409
Trainable params: 243,297
Non-trainable params: 2,112
_________________________________________________________________
Data shape
	X_train:   (8100, 200, 90)
	y_train:   (8100,)
	X_test:   (14481, 200, 90)
	y_test:   (14481,)
Results on train set
	loss_train:   0.3742896192329563
	accuracy_train:   0.8744444444444445
…
