…
Increased number of samples: 150000 instead of 100000

Parameters
	epochs:			10
	batch_size:		64
	depth_conv:		4
	depth_dense:	2
	filters:		128
	kernel_size:	3
	reg:			l2(5e-3)
	activation:		relu
	batch_norm:		True
	dropout:		0.3
	class_weight:	{0: 1.098901098901099, 1: 11.11111111111111}
	look_back:		5000
	stride:			10
	predicted_timestamps:	1
	target_steps_ahead:		2000
	subsampling_factor:		2

Model
_________________________________________________________________
Layer (type)                 Output Shape              Param #   
=================================================================
conv1d_1 (Conv1D)            (None, 5000, 128)         34688     
_________________________________________________________________
max_pooling1d_1 (MaxPooling1 (None, 2500, 128)         0         
_________________________________________________________________
conv1d_2 (Conv1D)            (None, 2500, 128)         49280     
_________________________________________________________________
max_pooling1d_2 (MaxPooling1 (None, 1250, 128)         0         
_________________________________________________________________
conv1d_3 (Conv1D)            (None, 1250, 128)         49280     
_________________________________________________________________
max_pooling1d_3 (MaxPooling1 (None, 625, 128)          0         
_________________________________________________________________
conv1d_4 (Conv1D)            (None, 625, 64)           24640     
_________________________________________________________________
max_pooling1d_4 (MaxPooling1 (None, 312, 64)           0         
_________________________________________________________________
flatten_1 (Flatten)          (None, 19968)             0         
_________________________________________________________________
batch_normalization_1 (Batch (None, 19968)             79872     
_________________________________________________________________
dropout_1 (Dropout)          (None, 19968)             0         
_________________________________________________________________
dense_1 (Dense)              (None, 256)               5112064   
_________________________________________________________________
batch_normalization_2 (Batch (None, 256)               1024      
_________________________________________________________________
dropout_2 (Dropout)          (None, 256)               0         
_________________________________________________________________
dense_2 (Dense)              (None, 1)                 257       
=================================================================
Total params: 5,351,105
Trainable params: 5,310,657
Non-trainable params: 40,448
_________________________________________________________________

Data shape
	X_train shape:	(8100, 5000, 90)
	y_train shape:	(8100,)
	X_test shape: 	(14301, 5000, 90)
	y_test shape: 	(14301,)

Results on train set
	Loss:		0.004932295028817786
	Accuracy:	0.9985185185185185
…
