…
input_1 (InputLayer)            [(None, 10, 90, 1)]  0                                            
__________________________________________________________________________________________________
input_2 (InputLayer)            [(None, 10, 90, 90)] 0                                            
__________________________________________________________________________________________________
input_3 (InputLayer)            [(None, 10, 90, 90,  0                                            
__________________________________________________________________________________________________
lambda (Lambda)                 (None, 90, 1)        0           input_1[0][0]                    
__________________________________________________________________________________________________
lambda_1 (Lambda)               (None, 90, 90)       0           input_2[0][0]                    
__________________________________________________________________________________________________
lambda_2 (Lambda)               (None, 90, 90, 1)    0           input_3[0][0]                    
__________________________________________________________________________________________________
edge_conditioned_conv (EdgeCond (None, 90, 32)       2208        lambda[0][0]                     
                                                                 lambda_1[0][0]                   
                                                                 lambda_2[0][0]                   
__________________________________________________________________________________________________
global_avg_pool (GlobalAvgPool) (None, 32)           0           edge_conditioned_conv[0][0]      
__________________________________________________________________________________________________
lambda_3 (Lambda)               (None, 10, 32)       0           global_avg_pool[0][0]            
__________________________________________________________________________________________________
unified_lstm (UnifiedLSTM)      (None, 10, 256)      295936      lambda_3[0][0]                   
__________________________________________________________________________________________________
dropout (Dropout)               (None, 10, 256)      0           unified_lstm[0][0]               
__________________________________________________________________________________________________
unified_lstm_1 (UnifiedLSTM)    (None, 256)          525312      dropout[0][0]                    
__________________________________________________________________________________________________
dropout_1 (Dropout)             (None, 256)          0           unified_lstm_1[0][0]             
__________________________________________________________________________________________________
dense (Dense)                   (None, 128)          32896       dropout_1[0][0]                  
__________________________________________________________________________________________________
dropout_2 (Dropout)             (None, 128)          0           dense[0][0]                      
__________________________________________________________________________________________________
dense_1 (Dense)                 (None, 1)            129         dropout_2[0][0]                  
==================================================================================================
Total params: 856,481
Trainable params: 856,481
Non-trainable params: 0
__________________________________________________________________________________________________

Data shape
	X_train:   (8100, 10, 90, 1)
	y_train:   (8100,)
	X_test:   (14301, 10, 90, 1)
…
