…
input_1 (InputLayer)            [(None, 10, 90, 1)]  0                                            
__________________________________________________________________________________________________
input_2 (InputLayer)            [(None, 10, 90, 90)] 0                                            
__________________________________________________________________________________________________
input_3 (InputLayer)            [(None, 10, 90, 90,  0                                            
__________________________________________________________________________________________________
lambda (Lambda)                 (None, 90, 1)        0           input_1[0][0]                    
__________________________________________________________________________________________________
lambda_1 (Lambda)               (None, 90, 90)       0           input_2[0][0]                    
__________________________________________________________________________________________________
lambda_2 (Lambda)               (None, 90, 90, 1)    0           input_3[0][0]                    
__________________________________________________________________________________________________
edge_conditioned_conv (EdgeCond (None, 90, 32)       2208        lambda[0][0]                     
                                                                 lambda_1[0][0]                   
                                                                 lambda_2[0][0]                   
__________________________________________________________________________________________________
global_avg_pool (GlobalAvgPool) (None, 32)           0           edge_conditioned_conv[0][0]      
__________________________________________________________________________________________________
lambda_3 (Lambda)               (None, 10, 32)       0           global_avg_pool[0][0]            
__________________________________________________________________________________________________
conv1d (Conv1D)                 (None, 10, 64)       6208        lambda_3[0][0]                   
__________________________________________________________________________________________________
max_pooling1d (MaxPooling1D)    (None, 5, 64)        0           conv1d[0][0]                     
__________________________________________________________________________________________________
dropout (Dropout)               (None, 5, 64)        0           max_pooling1d[0][0]              
__________________________________________________________________________________________________
conv1d_1 (Conv1D)               (None, 5, 64)        12352       dropout[0][0]                    
__________________________________________________________________________________________________
max_pooling1d_1 (MaxPooling1D)  (None, 2, 64)        0           conv1d_1[0][0]                   
__________________________________________________________________________________________________
dropout_1 (Dropout)             (None, 2, 64)        0           max_pooling1d_1[0][0]            
__________________________________________________________________________________________________
conv1d_2 (Conv1D)               (None, 2, 32)        6176        dropout_1[0][0]                  
__________________________________________________________________________________________________
max_pooling1d_2 (MaxPooling1D)  (None, 1, 32)        0           conv1d_2[0][0]                   
__________________________________________________________________________________________________
flatten (Flatten)               (None, 32)           0           max_pooling1d_2[0][0]            
__________________________________________________________________________________________________
dropout_2 (Dropout)             (None, 32)           0           flatten[0][0]                    
__________________________________________________________________________________________________
dense (Dense)                   (None, 128)          4224        dropout_2[0][0]                  
__________________________________________________________________________________________________
dropout_3 (Dropout)             (None, 128)          0           dense[0][0]                      
__________________________________________________________________________________________________
dense_1 (Dense)                 (None, 1)            129         dropout_3[0][0]                  
==================================================================================================
Total params: 31,297
Trainable params: 31,297
Non-trainable params: 0
__________________________________________________________________________________________________

Data shape
	X_train:   (27000, 10, 90, 1)
	y_train:   (27000,)
	X_test:   (14301, 10, 90, 1)
…
