…
	filters:   32
	kernel_size:   3
	reg_n:   l2(5e-1)
	activation:   relu
	batch_norm:   True
	dropout:   0.4
	pooling:   True
	pool_size:   2
	padding:   causal
	dilation_rate:   3
	class_weight:   {0: 1.098901098901099, 1: 11.11111111111111}
	look_back:   500
	stride:   1
	predicted_timestamps:   1
	target_steps_ahead:   2000
	subsampling_factor:   2

Model
Model: "sequential"
_________________________________________________________________
Layer (type)                 Output Shape              Param #   
=================================================================
conv1d (Conv1D)              (None, 500, 32)           8672      
_________________________________________________________________
max_pooling1d (MaxPooling1D) (None, 250, 32)           0         
_________________________________________________________________
conv1d_1 (Conv1D)            (None, 250, 16)           1552      
_________________________________________________________________
max_pooling1d_1 (MaxPooling1 (None, 125, 16)           0         
_________________________________________________________________
flatten (Flatten)            (None, 2000)              0         
_________________________________________________________________
batch_normalization_v2 (Batc (None, 2000)              8000      
_________________________________________________________________
dropout (Dropout)            (None, 2000)              0         
_________________________________________________________________
dense (Dense)                (None, 256)               512256    
_________________________________________________________________
batch_normalization_v2_1 (Ba (None, 256)               1024      
_________________________________________________________________
dropout_1 (Dropout)          (None, 256)               0         
_________________________________________________________________
dense_1 (Dense)              (None, 1)                 257       
=================================================================
Total params: 531,761
Trainable params: 527,249
Non-trainable params: 4,512
_________________________________________________________________

Data shape
	X_train:   (81000, 500, 90)
	y_train:   (81000,)
	X_test:   (14751, 500, 90)
	y_test:   (14751,)

Results on train set
	loss_train:   0.04664099249316678
	accuracy_train:   0.9868888888888889
…
