…
NO DROPOUT OR KERNEL REGULARIZATION BETWEEN CONVOLUTIONAL LAYERS
Parameters
	epochs:			10
	batch_size:		64
	depth_conv:		5
	depth_dense:	2
	filters:		512
	kernel_size:	5
	reg:			l2(5e-1)
	activation:		relu
	batch_norm:		True
	dropout:		0.4
	class_weight:	{0: 1.1560693641618498, 1: 7.407407407407407}
	look_back:		1000
	stride:			1
	predicted_timestamps:	1
	target_steps_ahead:		0
	subsampling_factor:		2

Model
_________________________________________________________________
Layer (type)                 Output Shape              Param #   
=================================================================
conv1d_1 (Conv1D)            (None, 996, 512)          230912    
_________________________________________________________________
max_pooling1d_1 (MaxPooling1 (None, 498, 512)          0         
_________________________________________________________________
conv1d_2 (Conv1D)            (None, 494, 512)          1311232   
_________________________________________________________________
max_pooling1d_2 (MaxPooling1 (None, 247, 512)          0         
_________________________________________________________________
conv1d_3 (Conv1D)            (None, 243, 512)          1311232   
_________________________________________________________________
max_pooling1d_3 (MaxPooling1 (None, 121, 512)          0         
_________________________________________________________________
conv1d_4 (Conv1D)            (None, 117, 512)          1311232   
_________________________________________________________________
max_pooling1d_4 (MaxPooling1 (None, 58, 512)           0         
_________________________________________________________________
conv1d_5 (Conv1D)            (None, 54, 256)           655616    
_________________________________________________________________
max_pooling1d_5 (MaxPooling1 (None, 27, 256)           0         
_________________________________________________________________
flatten_1 (Flatten)          (None, 6912)              0         
_________________________________________________________________
dense_1 (Dense)              (None, 256)               1769728   
_________________________________________________________________
batch_normalization_1 (Batch (None, 256)               1024      
_________________________________________________________________
dropout_1 (Dropout)          (None, 256)               0         
_________________________________________________________________
dense_2 (Dense)              (None, 1)                 257       
=================================================================
Total params: 6,591,233
Trainable params: 6,590,721
Non-trainable params: 512
_________________________________________________________________

Data shape
	X_train shape:	(81000, 1000, 90)
	y_train shape:	(81000,)
	X_test shape: 	(99001, 1000, 90)
	y_test shape: 	(99001,)

Results on train set
	Loss:		0.04941045382252929
	Accuracy:	0.9876543209876543
…
